{"format": "layers-model", "generatedBy": "keras v2.6.0", "convertedBy": "TensorFlow.js Converter v3.9.0", "modelTopology": {"keras_version": "2.6.0", "backend": "tensorflow", "model_config": {"class_name": "Sequential", "config": {"name": "sequential", "layers": [{"class_name": "InputLayer", "config": {"batch_input_shape": [null, 277, 277, 3], "dtype": "float32", "sparse": false, "ragged": false, "name": "conv2d_input"}}, {"class_name": "Conv2D", "config": {"name": "conv2d", "trainable": true, "batch_input_shape": [null, 277, 277, 3], "dtype": "float32", "filters": 96, "kernel_size": [11, 11], "strides": [4, 4], "padding": "valid", "data_format": "channels_last", "dilation_rate": [1, 1], "groups": 1, "activation": "relu", "use_bias": true, "kernel_initializer": {"class_name": "GlorotUniform", "config": {"seed": null}}, "bias_initializer": {"class_name": "Zeros", "config": {}}, "kernel_regularizer": null, "bias_regularizer": null, "activity_regularizer": null, "kernel_constraint": null, "bias_constraint": null}}, {"class_name": "BatchNormalization", "config": {"name": "batch_normalization", "trainable": true, "dtype": "float32", "axis": [3], "momentum": 0.99, "epsilon": 0.001, "center": true, "scale": true, "beta_initializer": {"class_name": "Zeros", "config": {}}, "gamma_initializer": {"class_name": "Ones", "config": {}}, "moving_mean_initializer": {"class_name": "Zeros", "config": {}}, "moving_variance_initializer": {"class_name": "Ones", "config": {}}, "beta_regularizer": null, "gamma_regularizer": null, "beta_constraint": null, "gamma_constraint": null}}, {"class_name": "MaxPooling2D", "config": {"name": "max_pooling2d", "trainable": true, "dtype": "float32", "pool_size": [3, 3], "padding": "valid", "strides": [2, 2], "data_format": "channels_last"}}, {"class_name": "Conv2D", "config": {"name": "conv2d_1", "trainable": true, "dtype": "float32", "filters": 256, "kernel_size": [5, 5], "strides": [1, 1], "padding": "same", "data_format": "channels_last", "dilation_rate": [1, 1], "groups": 1, "activation": "relu", "use_bias": true, "kernel_initializer": {"class_name": "GlorotUniform", "config": {"seed": null}}, "bias_initializer": {"class_name": "Zeros", "config": {}}, "kernel_regularizer": null, "bias_regularizer": null, "activity_regularizer": null, "kernel_constraint": null, "bias_constraint": null}}, {"class_name": "BatchNormalization", "config": {"name": "batch_normalization_1", "trainable": true, "dtype": "float32", "axis": [3], "momentum": 0.99, "epsilon": 0.001, "center": true, "scale": true, "beta_initializer": {"class_name": "Zeros", "config": {}}, "gamma_initializer": {"class_name": "Ones", "config": {}}, "moving_mean_initializer": {"class_name": "Zeros", "config": {}}, "moving_variance_initializer": {"class_name": "Ones", "config": {}}, "beta_regularizer": null, "gamma_regularizer": null, "beta_constraint": null, "gamma_constraint": null}}, {"class_name": "MaxPooling2D", "config": {"name": "max_pooling2d_1", "trainable": true, "dtype": "float32", "pool_size": [3, 3], "padding": "valid", "strides": [2, 2], "data_format": "channels_last"}}, {"class_name": "Conv2D", "config": {"name": "conv2d_2", "trainable": true, "dtype": "float32", "filters": 384, "kernel_size": [3, 3], "strides": [1, 1], "padding": "same", "data_format": "channels_last", "dilation_rate": [1, 1], "groups": 1, "activation": "relu", "use_bias": true, "kernel_initializer": {"class_name": "GlorotUniform", "config": {"seed": null}}, "bias_initializer": {"class_name": "Zeros", "config": {}}, "kernel_regularizer": null, "bias_regularizer": null, "activity_regularizer": null, "kernel_constraint": null, "bias_constraint": null}}, {"class_name": "BatchNormalization", "config": {"name": "batch_normalization_2", "trainable": true, "dtype": "float32", "axis": [3], "momentum": 0.99, "epsilon": 0.001, "center": true, "scale": true, "beta_initializer": {"class_name": "Zeros", "config": {}}, "gamma_initializer": {"class_name": "Ones", "config": {}}, "moving_mean_initializer": {"class_name": "Zeros", "config": {}}, "moving_variance_initializer": {"class_name": "Ones", "config": {}}, "beta_regularizer": null, "gamma_regularizer": null, "beta_constraint": null, "gamma_constraint": null}}, {"class_name": "Conv2D", "config": {"name": "conv2d_3", "trainable": true, "dtype": "float32", "filters": 384, "kernel_size": [3, 3], "strides": [1, 1], "padding": "same", "data_format": "channels_last", "dilation_rate": [1, 1], "groups": 1, "activation": "relu", "use_bias": true, "kernel_initializer": {"class_name": "GlorotUniform", "config": {"seed": null}}, "bias_initializer": {"class_name": "Zeros", "config": {}}, "kernel_regularizer": null, "bias_regularizer": null, "activity_regularizer": null, "kernel_constraint": null, "bias_constraint": null}}, {"class_name": "BatchNormalization", "config": {"name": "batch_normalization_3", "trainable": true, "dtype": "float32", "axis": [3], "momentum": 0.99, "epsilon": 0.001, "center": true, "scale": true, "beta_initializer": {"class_name": "Zeros", "config": {}}, "gamma_initializer": {"class_name": "Ones", "config": {}}, "moving_mean_initializer": {"class_name": "Zeros", "config": {}}, "moving_variance_initializer": {"class_name": "Ones", "config": {}}, "beta_regularizer": null, "gamma_regularizer": null, "beta_constraint": null, "gamma_constraint": null}}, {"class_name": "Conv2D", "config": {"name": "conv2d_4", "trainable": true, "dtype": "float32", "filters": 256, "kernel_size": [3, 3], "strides": [1, 1], "padding": "same", "data_format": "channels_last", "dilation_rate": [1, 1], "groups": 1, "activation": "relu", "use_bias": true, "kernel_initializer": {"class_name": "GlorotUniform", "config": {"seed": null}}, "bias_initializer": {"class_name": "Zeros", "config": {}}, "kernel_regularizer": null, "bias_regularizer": null, "activity_regularizer": null, "kernel_constraint": null, "bias_constraint": null}}, {"class_name": "BatchNormalization", "config": {"name": "batch_normalization_4", "trainable": true, "dtype": "float32", "axis": [3], "momentum": 0.99, "epsilon": 0.001, "center": true, "scale": true, "beta_initializer": {"class_name": "Zeros", "config": {}}, "gamma_initializer": {"class_name": "Ones", "config": {}}, "moving_mean_initializer": {"class_name": "Zeros", "config": {}}, "moving_variance_initializer": {"class_name": "Ones", "config": {}}, "beta_regularizer": null, "gamma_regularizer": null, "beta_constraint": null, "gamma_constraint": null}}, {"class_name": "MaxPooling2D", "config": {"name": "max_pooling2d_2", "trainable": true, "dtype": "float32", "pool_size": [3, 3], "padding": "valid", "strides": [2, 2], "data_format": "channels_last"}}, {"class_name": "Flatten", "config": {"name": "flatten", "trainable": true, "dtype": "float32", "data_format": "channels_last"}}, {"class_name": "Dense", "config": {"name": "dense", "trainable": true, "dtype": "float32", "units": 4096, "activation": "relu", "use_bias": true, "kernel_initializer": {"class_name": "GlorotUniform", "config": {"seed": null}}, "bias_initializer": {"class_name": "Zeros", "config": {}}, "kernel_regularizer": null, "bias_regularizer": null, "activity_regularizer": null, "kernel_constraint": null, "bias_constraint": null}}, {"class_name": "Dropout", "config": {"name": "dropout", "trainable": true, "dtype": "float32", "rate": 0.5, "noise_shape": null, "seed": null}}, {"class_name": "Dense", "config": {"name": "dense_1", "trainable": true, "dtype": "float32", "units": 4096, "activation": "relu", "use_bias": true, "kernel_initializer": {"class_name": "GlorotUniform", "config": {"seed": null}}, "bias_initializer": {"class_name": "Zeros", "config": {}}, "kernel_regularizer": null, "bias_regularizer": null, "activity_regularizer": null, "kernel_constraint": null, "bias_constraint": null}}, {"class_name": "Dropout", "config": {"name": "dropout_1", "trainable": true, "dtype": "float32", "rate": 0.5, "noise_shape": null, "seed": null}}, {"class_name": "Dense", "config": {"name": "dense_2", "trainable": true, "dtype": "float32", "units": 6, "activation": "softmax", "use_bias": true, "kernel_initializer": {"class_name": "GlorotUniform", "config": {"seed": null}}, "bias_initializer": {"class_name": "Zeros", "config": {}}, "kernel_regularizer": null, "bias_regularizer": null, "activity_regularizer": null, "kernel_constraint": null, "bias_constraint": null}}]}}, "training_config": {"loss": "binary_crossentropy", "metrics": [[{"class_name": "MeanMetricWrapper", "config": {"name": "accuracy", "dtype": "float32", "fn": "categorical_accuracy"}}]], "weighted_metrics": null, "loss_weights": null, "optimizer_config": {"class_name": "Adam", "config": {"name": "Adam", "learning_rate": 0.0010000000474974513, "decay": 0.0, "beta_1": 0.8999999761581421, "beta_2": 0.9990000128746033, "epsilon": 1e-07, "amsgrad": false}}}}, "weightsManifest": [{"paths": ["group1-shard1of69.bin", "group1-shard2of69.bin", "group1-shard3of69.bin", "group1-shard4of69.bin", "group1-shard5of69.bin", "group1-shard6of69.bin", "group1-shard7of69.bin", "group1-shard8of69.bin", "group1-shard9of69.bin", "group1-shard10of69.bin", "group1-shard11of69.bin", "group1-shard12of69.bin", "group1-shard13of69.bin", "group1-shard14of69.bin", "group1-shard15of69.bin", "group1-shard16of69.bin", "group1-shard17of69.bin", "group1-shard18of69.bin", "group1-shard19of69.bin", "group1-shard20of69.bin", "group1-shard21of69.bin", "group1-shard22of69.bin", "group1-shard23of69.bin", "group1-shard24of69.bin", "group1-shard25of69.bin", "group1-shard26of69.bin", "group1-shard27of69.bin", "group1-shard28of69.bin", "group1-shard29of69.bin", "group1-shard30of69.bin", "group1-shard31of69.bin", "group1-shard32of69.bin", "group1-shard33of69.bin", "group1-shard34of69.bin", "group1-shard35of69.bin", "group1-shard36of69.bin", "group1-shard37of69.bin", "group1-shard38of69.bin", "group1-shard39of69.bin", "group1-shard40of69.bin", "group1-shard41of69.bin", "group1-shard42of69.bin", "group1-shard43of69.bin", "group1-shard44of69.bin", "group1-shard45of69.bin", "group1-shard46of69.bin", "group1-shard47of69.bin", "group1-shard48of69.bin", "group1-shard49of69.bin", "group1-shard50of69.bin", "group1-shard51of69.bin", "group1-shard52of69.bin", "group1-shard53of69.bin", "group1-shard54of69.bin", "group1-shard55of69.bin", "group1-shard56of69.bin", "group1-shard57of69.bin", "group1-shard58of69.bin", "group1-shard59of69.bin", "group1-shard60of69.bin", "group1-shard61of69.bin", "group1-shard62of69.bin", "group1-shard63of69.bin", "group1-shard64of69.bin", "group1-shard65of69.bin", "group1-shard66of69.bin", "group1-shard67of69.bin", "group1-shard68of69.bin", "group1-shard69of69.bin"], "weights": [{"name": "batch_normalization/gamma", "shape": [96], "dtype": "float32"}, {"name": "batch_normalization/beta", "shape": [96], "dtype": "float32"}, {"name": "batch_normalization/moving_mean", "shape": [96], "dtype": "float32"}, {"name": "batch_normalization/moving_variance", "shape": [96], "dtype": "float32"}, {"name": "batch_normalization_1/gamma", "shape": [256], "dtype": "float32"}, {"name": "batch_normalization_1/beta", "shape": [256], "dtype": "float32"}, {"name": "batch_normalization_1/moving_mean", "shape": [256], "dtype": "float32"}, {"name": "batch_normalization_1/moving_variance", "shape": [256], "dtype": "float32"}, {"name": "batch_normalization_2/gamma", "shape": [384], "dtype": "float32"}, {"name": "batch_normalization_2/beta", "shape": [384], "dtype": "float32"}, {"name": "batch_normalization_2/moving_mean", "shape": [384], "dtype": "float32"}, {"name": "batch_normalization_2/moving_variance", "shape": [384], "dtype": "float32"}, {"name": "batch_normalization_3/gamma", "shape": [384], "dtype": "float32"}, {"name": "batch_normalization_3/beta", "shape": [384], "dtype": "float32"}, {"name": "batch_normalization_3/moving_mean", "shape": [384], "dtype": "float32"}, {"name": "batch_normalization_3/moving_variance", "shape": [384], "dtype": "float32"}, {"name": "batch_normalization_4/gamma", "shape": [256], "dtype": "float32"}, {"name": "batch_normalization_4/beta", "shape": [256], "dtype": "float32"}, {"name": "batch_normalization_4/moving_mean", "shape": [256], "dtype": "float32"}, {"name": "batch_normalization_4/moving_variance", "shape": [256], "dtype": "float32"}, {"name": "conv2d/kernel", "shape": [11, 11, 3, 96], "dtype": "float32"}, {"name": "conv2d/bias", "shape": [96], "dtype": "float32"}, {"name": "conv2d_1/kernel", "shape": [5, 5, 96, 256], "dtype": "float32"}, {"name": "conv2d_1/bias", "shape": [256], "dtype": "float32"}, {"name": "conv2d_2/kernel", "shape": [3, 3, 256, 384], "dtype": "float32"}, {"name": "conv2d_2/bias", "shape": [384], "dtype": "float32"}, {"name": "conv2d_3/kernel", "shape": [3, 3, 384, 384], "dtype": "float32"}, {"name": "conv2d_3/bias", "shape": [384], "dtype": "float32"}, {"name": "conv2d_4/kernel", "shape": [3, 3, 384, 256], "dtype": "float32"}, {"name": "conv2d_4/bias", "shape": [256], "dtype": "float32"}, {"name": "dense/kernel", "shape": [12544, 4096], "dtype": "float32"}, {"name": "dense/bias", "shape": [4096], "dtype": "float32"}, {"name": "dense_1/kernel", "shape": [4096, 4096], "dtype": "float32"}, {"name": "dense_1/bias", "shape": [4096], "dtype": "float32"}, {"name": "dense_2/kernel", "shape": [4096, 6], "dtype": "float32"}, {"name": "dense_2/bias", "shape": [6], "dtype": "float32"}]}]}